…
as.layers.Dense(<span class="number">64</span>, activation=<span class="string">'relu'</span>))</span><br><span class="line">model.add(tf.keras.layers.Dense(<span class="number">10</span>, activation=<span class="string">'softmax'</span>))</span><br><span class="line">model.summary()</span><br></pre></td></tr></table></figure>
<pre><code>Model: &quot;sequential_18&quot;
_________________________________________________________________
Layer (type)                 Output Shape              Param #   
=================================================================
conv2d_35 (Conv2D)           (None, 30, 30, 32)        896       
_________________________________________________________________
max_pooling2d_12 (MaxPooling (None, 15, 15, 32)        0         
_________________________________________________________________
conv2d_36 (Conv2D)           (None, 13, 13, 64)        18496     
_________________________________________________________________
max_pooling2d_13 (MaxPooling (None, 6, 6, 64)          0         
_________________________________________________________________
conv2d_37 (Conv2D)           (None, 4, 4, 64)          36928     
_________________________________________________________________
flatten_12 (Flatten)         (None, 1024)              0         
_________________________________________________________________
dense_22 (Dense)             (None, 64)                65600     
_________________________________________________________________
dense_23 (Dense)             (None, 10)                650       
=================================================================
Total params: 122,570
Trainable params: 122,570
Non-trainable params: 0
_________________________________________________________________
</code></pre><h3 id="9-4-编译模型"><a href="#9-4-编译模型" class="headerlink" title="9.4 编译模型"></a>9.4 编译模型</h3><figure class="highlight python"><table><tr><td class="code"><pre><span class="line"
…
